pubg/output/pubg.pth (torch, 3407 bytes, 3 tensors)

weight f4 [8, 25]
-0.057976753 0.04003441 0.1145083 0.0022930487 0.041946646 0.09130512 -0.26541436 0.1040105
0.017464109 -0.037810758 0.09169298 0.15519999 0.0560547 -0.11225468 -0.020619923 0.1177507
0.1394543 0.07963155 0.05346204 0.15551119 0.024807915 0.04185181 -0.054235104 -0.16757691
0.24854624 0.15086259 -0.0273652 -0.052699123 -0.17882854 -0.09762376 0.09392933 0.03331763
0.07154594 -0.01014012 -0.15346429 -0.036013093 0.11702393 -0.10165379 -0.078994766 0.102742836
-0.004907008 -0.08215505 -0.036856193 -0.11549528 0.118273854 0.06502059 -0.07333367 0.30413923
0.16068716 -0.05352351 0.06743063 -0.12531579 -0.14047578 -0.08070386 -0.15564434 -0.15007876
-0.15375678 -0.15997581 0.18628219 -0.06367475 0.035266336 0.11590089 -0.15081942 0.14914367
0.040700126 0.027904894 -0.1190334 -0.079793155 -0.04165412 0.16191033 -0.080972224 -0.18285894
-0.071274206 0.10264063 -0.04348439 0.028300142 0.12184037 -0.110199556 0.17514537 -0.14559549
-0.15248306 0.13717714 0.18535332 0.028988592 0.025436372 0.21532673 -0.15370856 0.11443418
-0.05956452 0.13133563 -0.1276536 0.13169897 -0.11658671 0.03221326 -0.0033609748 -0.1565208
0.14061186 0.00033695588 0.20624007 -0.05002752 -0.08494001 0.03232654 -0.07291374 -0.031077178
-0.051344585 -0.012452744 -0.077866 0.12997109 0.05378449 -0.09179205 -0.15277468 -0.15168273
-0.0058472143 0.011674518 -0.058005042 -0.15024668 -0.10727864 0.07983031 0.14983827 0.01633184
0.0355133 0.14817634 -0.11747849 0.025929773 -0.16280645 -0.15017915 0.074954726 0.13272738
0.16644123 0.040680554 -0.008722719 0.06625251 -0.056293003 -0.16993785 -0.13335729 0.043438245
-0.07814205 0.02982014 0.20269589 0.080508746 -0.2385691 -0.1413948 0.11916199 0.03946893
0.0834358 0.011865783 0.06183659 -0.2264285 -0.03325326 -0.22227368 -0.12967667 0.12667
-0.11036216 -0.032170147 0.08492252 -0.058854047 0.044351313 -0.108288474 -0.11246152 -0.13137704
0.1359847 2.1255675e-05 0.12053118 0.08286099 0.14111924 -0.06059539 -0.07012243 -0.054870028
-0.082476884 -0.05810917 0.061804008 -0.042956002 0.25356779 -0.021235147 0.12604813 0.030177569
-0.07815993 -0.14310175 -0.11114966 -0.04525088 0.03211142 0.30780742 0.1065421 0.012527535
0.15565571 0.086723775 0.24251053 0.055993922 0.22187673 -0.3131063 -0.07319374 0.043080553
-0.13542373 -0.10444233 0.07062135 0.054890767 -0.055190586 -0.15820552 0.02184849 0.04440004
00000000: 0879 6dbd 1ffb 233d 5483 ea3d f946 163b
00000010: 3fd0 2b3d 2efe ba3d 64e4 87be 7503 d53d
00000020: e410 8f3c 74df 1abd 87c9 bb3d bfec 1e3e
00000030: 9d99 653d c8e5 e5bd 1deb a8bc 4727 f13d
00000040: 1ccd 0e3e de15 a33d 03fb 5a3d 533e 1f3e
00000050: f839 cb3c ce6c 2b3d a125 5ebd 4899 2bbe
00000060: e882 7e3e b97b 1a3e fc2c e0bc 09db 57bd
00000070: d41e 37be f7ee c7bd 055e c03d 1178 083d
00000080: ae86 923d bf22 26bc be25 1dbe 7782 13bd
00000090: 3eaa ef3d dd2f d0bd 02c8 a1bd d66a d23d
000000a0: f7ca a0bb e840 a8bd 85f6 16bd ca88 ecbd
000000b0: 9039 f23d 8429 853d f72f 96bd 23b8 9b3e
000000c0: 2d8b 243e 783b 5bbd 1219 8a3d c852 00be
000000d0: e2d8 0fbe 1148 a5bd 3b61 1fbe 3fae 19be
000000e0: 6b72 1dbe b3d0 23be c2c0 3e3e e867 82bd
000000f0: 6f73 103d 725d ed3d 6870 1abe 1eb9 183e
00000100: 2db5 263d ce98 e43c c9c7 f3bd 986a a3bd
00000110: 839d 2abd d2cb 253e c4d4 a5bd 603f 3bbe
00000120: 36f8 91bd 4035 d23d b01c 32bd b3d5 e73c
00000130: 7287 f93d 4eb0 e1bd 4f59 333e fc16 15be
00000140: 8524 1cbe 2a78 0c3e 43cd 3d3e 7c79 ed3c
00000150: f05f d03c 9c7e 5c3e c765 1dbe 785c ea3d
00000160: edf9 73bd d97c 063e a0b7 02be 18dc 063e
00000170: 03c5 eebd 0df2 033d cd43 5cbb fd46 20be
00000180: 8efc 0f3e 74a9 b039 9930 533e a8e9 4cbd
00000190: 07f5 adbd d668 043d cd53 95bd 9195 febc
000001a0: b34e 52bd 9806 4cbc 3678 9fbd 2417 053e
000001b0: 204d 5c3d 78fd bbbd f770 1cbe b852 1bbe
000001c0: fd99 bfbb 7a46 3f3c b296 6dbd 44da 19be
000001d0: e7b4 dbbd 137e a33d 346f 193e 5aca 853c
000001e0: 6576 113d 8abb 173e 9098 f0bd ad6a d43c
000001f0: bcb6 26be 90c8 19be dd81 993d b0e9 073e
00000200: 926f 2a3e a7a0 263d bce9 0ebc 65af 873d
00000210: 7e93 66bd 3004 2ebe d08e 08be 4dec 313d
00000220: f008 a0bd 5e49 f43c 838f 4f3e c5e1 a43d
00000230: 754b 74be ccc9 10be 340b f43d 2caa 213d
00000240: 64e0 aa3d b368 423c 5d48 7d3d dfdc 67be
00000250: 9234 08bd b69b 63be f6c9 04be c8b5 013e
00000260: 8e05 e2bd d8c4 03bd dceb ad3d f110 71bd
00000270: b9a9 353d 59c6 ddbd 3a52 e6bd b487 06be
00000280: 933f 0b3e 374e b237 0dd9 f63d 06b3 a93d
00000290: 9081 103e df32 78bd 599c 8fbd 65bf 60bd
000002a0: a4e9 a8bd e203 6ebd 3326 7d3d a2f2 2fbd
000002b0: a3d3 813e 55f5 adbc c312 013e f336 f73c
000002c0: 5012 a0bd 4489 12be 6fa2 e3bd fd58 39bd
000002d0: 4487 033d ef98 9d3e bf32 da3d 4a40 4d3c
000002e0: 3664 1f3e 3c9c b13d ae54 783e e259 653d
000002f0: a733 633e 784f a0be 99e6 95bd 3c75 303d
00000300: 85ac 0abe dce5 d5bd eda1 903d 24d5 603d
00000310: 860f 62bd a100 22be 9bfb b23c d1dc 353d

bias f4 [8]
0.010018211 -0.03724854 -0.12617849 0.050853524 0.17107588 -0.16143157 0.23245043 -0.02901074
00000000: 6c23 243c ed91 18bd ef34 01be c94b 503d
00000010: 842e 2f3e 514e 25be 7c07 6e3e eea7 edbc

weight f4 [1, 8]
0.2590747 0.30301863 0.02307225 0.086147666 0.00079415966 -0.20206648 0.2596802 -0.50447714
00000000: 70a5 843e 4225 9b3e 0402 bd3c 306e b03d
00000010: 272f 503a 84ea 4ebe cef4 843e 6a25 01bf
