pubg/output/pubg_2020-12-12 19-22-23.pth (torch, 3407 bytes, 3 tensors)

weight f4 [8, 25]
-0.18057388 -0.26452148 -0.12442757 0.17195125 0.17762448 0.12543195 0.21802182 0.1257155
0.180111 0.28533852 0.0626567 0.04177392 0.16724859 -0.08643155 -0.13959114 -0.20556465
-0.06261885 -0.022046775 0.13466088 -0.14955327 0.108338766 0.021761471 -0.42556283 -0.2628669
0.0018657474 -0.24274088 -0.40013096 0.020227177 0.07790208 0.025913985 0.08437503 0.16897082
0.084189475 0.21559943 0.43548512 -0.2855241 -0.01864965 0.056499816 0.24159078 -0.24991111
-0.18672629 -0.14774922 -0.24032088 0.019827154 -0.014804808 0.14751813 0.086485356 -0.93052864
-0.10457289 -0.018134627 -0.09436994 -0.08804529 -0.17248014 -0.048114136 0.17382957 0.12806909
-0.109569125 -0.16374062 0.056509275 0.105796106 0.09931957 -0.10494189 0.10950287 -0.060492203
0.06844445 -0.20908207 -0.14273603 -0.048189905 -0.07177034 0.012063807 0.021991253 -0.059230596
-0.07509427 0.12189461 -0.040651463 -0.0949157 -0.10980912 -0.09930333 0.107083485 0.016116174
-0.035430565 0.24303071 0.20905925 0.14484136 0.47848564 -0.109369114 0.044841144 0.03355645
-0.018144874 0.03759724 -0.25748137 -0.20360966 -0.26333106 0.090751976 -0.0068341675 -0.113981865
-0.090336 -0.9913915 -0.19809665 -0.12655881 -0.044149432 -0.31108046 -0.09416467 0.03717485
0.11334542 -0.051345095 0.006247977 -0.122997925 0.15356588 0.45413813 0.09244597 -0.024722386
-0.09788208 0.22810796 -0.065716855 -0.018805653 -0.039468233 -0.22785302 0.022669852 -0.020227907
-0.13785836 0.116336696 -0.7635158 -0.25102356 0.032332644 0.03331505 0.18923753 0.15765864
-0.093501136 0.05809758 0.1307807 -0.15673465 0.047850296 -0.044251677 -0.7853378 0.005911685
-0.15531094 -0.097718365 -0.18894629 0.28925514 0.023492504 0.1381012 -0.11356919 0.05711521
0.13857034 -0.028749503 0.065704376 1.035285 0.116993375 -0.039169304 0.122742325 -0.014857247
0.04733663 -0.09796956 0.06281517 -0.07134074 0.07620102 0.08805631 0.03294016 -0.46572438
-0.0024166428 0.027044583 0.1447539 -0.15416853 0.04615033 -0.105855644 -0.09256245 0.05773811
0.027496897 0.21025173 0.034858767 -0.07764581 0.7988326 -0.016599488 0.13510375 -0.026044881
0.06894878 0.058764048 -0.28033924 0.11213959 0.2149625 0.02212552 0.13170664 -0.012662845
-0.44710723 0.031992387 -0.17587923 0.11993968 0.078887545 0.061373577 0.006572115 -0.16437931
0.11460639 -0.079513036 -0.050180525 -0.22303843 -0.036718745 0.7025539 0.24189907 0.045269914
00000000: 5ce8 38be 5c6f 87be e2d3 febd fd13 303e
00000010: 31e3 353e 3c71 003e 1d41 5f3e 90bb 003e
00000020: 056f 383e e417 923e 2852 803d 211b 2b3d
00000030: 3743 2b3e 0603 b1bd fbf0 0ebe 8a7f 52be
00000040: 503e 80bd 709b b4bc 8be4 093e 7e24 19be
00000050: b7e0 dd3d 1d45 b23c 5fe3 d9be 7e96 86be
00000060: 188c f43a 1191 78be f7dd ccbe 77b3 a53c
00000070: 208b 9f3d 9149 d43c d1cc ac3d b006 2d3e
00000080: 886b ac3d 19c6 5c3e e8f7 de3e 3730 92be
00000090: 27c7 98bc 5a6c 673d 9363 773e b3e8 7fbe
000000a0: 2d35 3fbe 924b 17be ad16 76be 8e6c a23c
000000b0: de8f 72bc fe0e 173e 3c1f b13d 2037 6ebf
000000c0: 502a d6bd 128f 94bc 0745 c1bd 1751 b4bd
000000d0: a29e 30be 5413 45bd 6100 323e 8b24 033e
000000e0: c765 e0bd 9fab 27be 4576 673d a1ab d83d
000000f0: 0f68 cb3d c6eb d6bd 0a43 e03d acc6 77bd
00000100: 9b2c 8c3d 9c19 56be 6529 12be c762 45bd
00000110: 54fc 92bd 46a7 453c 0027 b43c c89b 72bd
00000120: 06cb 99bd e2a3 f93d 2682 26bd 2a63 c2bd
00000130: 9be3 e0bd 8b5f cbbd 964e db3d 1106 843c
00000140: a41f 11bd 0bdd 783e a113 563e 4b51 143e
00000150: 12fc f43e eafc dfbd 59ab 373d 7d72 093d
00000160: 8fa4 94bc 90ff 193d 99d4 83be 0d7f 50be
00000170: 54d3 86be 2cdc b93d 27f1 dfbb 536f e9bd
00000180: 1502 b9bd d5cb 7dbf d9d9 4abe a298 01be
00000190: 09d6 34bd f045 9fbe 68d9 c0bd a844 183d
000001a0: a521 e83d 3c4f 52bd d4bb cc3b 56e6 fbbd
000001b0: 6040 1d3e cb84 e83e 5054 bd3d 9a86 cabc
000001c0: 6676 c8bd 2295 693e 8f96 86bd 500e 9abc
000001d0: 71a9 21bd 4d52 69be 20b6 b93c ffb4 a5bc
000001e0: be2a 0dbe ef41 ee3d c575 43bf 2986 80be
000001f0: 3c6f 043d 5d75 083d 7cc7 413e 4471 213e
00000200: 867d bfbd baf7 6d3d 60eb 053e 0c7f 20be
00000210: acfe 433d 3f41 35bd e60b 49bf cfb6 c13b
00000220: d509 1fbe 9120 c8bd 237b 41be 4019 943e
00000230: 5a73 c03c 676a 0d3e f796 e8bd a3f1 693d
00000240: 62e5 0d3e 1484 ebbc 0490 863d 3884 843f
00000250: 399a ef3d fe6f 20bd 5460 fb3d cf6b 73bc
00000260: 0ee4 413d 44a4 c8bd 3da5 803d 181b 92bd
00000270: 480f 9c3d de56 b43d 43ec 063d 6d73 eebe
00000280: 8a60 1ebb 9a8c dd3c 5e3a 143e 5bde 1dbe
00000290: 2108 3d3d d8ca d8bd 6291 bdbd cc7e 6c3d
000002a0: 2c41 e13c 3b4c 573e 11c8 0e3d c404 9fbd
000002b0: 4b80 4c3f a6fb 87bc a358 0a3e 135c d5bc
000002c0: 0535 8d3d 92b2 703d a088 8fbe 71a9 e53d
000002d0: 211f 5c3e 9440 b53c 1bde 063e d277 4fbc
000002e0: 3deb e4be 730a 033d af19 34be efa2 f53d
000002f0: cb8f a13d dc62 7b3d e55a d73b 0d53 28be
00000300: c1b6 ea3d bbd7 a2bd 188a 4dbd 3064 64be
00000310: 6566 16bd 93da 333f 64b4 773e f26c 393d

bias f4 [8]
0.08135042 -0.13309321 -0.08814419 0.030938936 -0.10052947 -0.032148067 0.22863938 0.12077344
00000000: 0d9b a63d 9649 08be f184 b4bd a773 fd3c
00000010: 65e2 cdbd b1ad 03bd 7120 6a3e 1158 f73d

weight f4 [1, 8]
-0.6839447 -1.162067 -0.10534926 -1.1655535 -0.92559063 1.3323272 0.88451195 0.88172644
00000000: 0017 2fbf 9dbe 94bf 5ac1 d7bd db30 95bf
00000010: 82f3 6cbf b389 aa3f 606f 623f d3b8 613f
